I0616 10:09:52.068265 16521 caffe.cpp:149] Use GPU with device ID 0
I0616 10:09:53.067257 16521 net.cpp:360] The NetState phase (1) differed from the phase (0) specified by a rule in layer cifar
I0616 10:09:53.067457 16521 net.cpp:55] Initializing net from parameters: 
name: "CIFAR10_quick"
state {
  phase: TEST
}
layer {
  name: "cifar"
  type: "Data"
  top: "data"
  top: "label"
  include {
    phase: TEST
  }
  transform_param {
    mean_file: "examples/cifar10/mean.binaryproto"
  }
  data_param {
    source: "examples/cifar10/cifar10_test_lmdb"
    batch_size: 100
    backend: LMDB
  }
}
layer {
  name: "conv1"
  type: "Convolution"
  bottom: "data"
  top: "conv1"
  param {
    lr_mult: 1
  }
  param {
    lr_mult: 2
  }
  convolution_param {
    num_output: 32
    pad: 2
    kernel_size: 5
    stride: 1
    weight_filler {
      type: "gaussian"
      std: 0.0001
    }
    bias_filler {
      type: "constant"
    }
  }
}
layer {
  name: "pool1"
  type: "Pooling"
  bottom: "conv1"
  top: "pool1"
  pooling_param {
    pool: MAX
    kernel_size: 3
    stride: 2
  }
}
layer {
  name: "relu1"
  type: "ReLU"
  bottom: "pool1"
  top: "pool1"
}
layer {
  name: "conv2"
  type: "Convolution"
  bottom: "pool1"
  top: "conv2"
  param {
    lr_mult: 1
  }
  param {
    lr_mult: 2
  }
  convolution_param {
    num_output: 32
    pad: 2
    kernel_size: 5
    stride: 1
    weight_filler {
      type: "gaussian"
      std: 0.01
    }
    bias_filler {
      type: "constant"
    }
  }
}
layer {
  name: "relu2"
  type: "ReLU"
  bottom: "conv2"
  top: "conv2"
}
layer {
  name: "pool2"
  type: "Pooling"
  bottom: "conv2"
  top: "pool2"
  pooling_param {
    pool: AVE
    kernel_size: 3
    stride: 2
  }
}
layer {
  name: "conv3"
  type: "Convolution"
  bottom: "pool2"
  top: "conv3"
  param {
    lr_mult: 1
  }
  param {
    lr_mult: 2
  }
  convolution_param {
    num_output: 64
    pad: 2
    kernel_size: 5
    stride: 1
    weight_filler {
      type: "gaussian"
      std: 0.01
    }
    bias_filler {
      type: "constant"
    }
  }
}
layer {
  name: "relu3"
  type: "ReLU"
  bottom: "conv3"
  top: "conv3"
}
layer {
  name: "pool3"
  type: "Pooling"
  bottom: "conv3"
  top: "pool3"
  pooling_param {
    pool: AVE
    kernel_size: 3
    stride: 2
  }
}
layer {
  name: "ip1"
  type: "InnerProduct"
  bottom: "pool3"
  top: "ip1"
  param {
    lr_mult: 1
  }
  param {
    lr_mult: 2
  }
  inner_product_param {
    num_output: 64
    weight_filler {
      type: "gaussian"
      std: 0.1
    }
    bias_filler {
      type: "constant"
    }
  }
}
layer {
  name: "ip2"
  type: "InnerProduct"
  bottom: "ip1"
  top: "ip2"
  param {
    lr_mult: 1
  }
  param {
    lr_mult: 2
  }
  inner_product_param {
    num_output: 10
    weight_filler {
      type: "gaussian"
      std: 0.1
    }
    bias_filler {
      type: "constant"
    }
  }
}
layer {
  name: "accuracy"
  type: "Accuracy"
  bottom: "ip2"
  bottom: "label"
  top: "accuracy"
  include {
    phase: TEST
  }
}
layer {
  name: "loss"
  type: "SoftmaxWithLoss"
  bottom: "ip2"
  bottom: "label"
  top: "loss"
}
I0616 10:09:53.067592 16521 net.cpp:350] Computing with 2 thread(s) on 1 GPU(s).
I0616 10:09:53.067631 16521 layer_factory.hpp:74] Creating layer cifar
I0616 10:09:53.067644 16521 net.cpp:105] Creating Layer cifar
I0616 10:09:53.067651 16521 net.cpp:446] cifar -> data
I0616 10:09:53.067673 16521 net.cpp:446] cifar -> label
I0616 10:09:53.067683 16521 net.cpp:136] Setting up cifar
F0616 10:09:53.067734 16521 db.hpp:109] Check failed: mdb_status == 0 (2 vs. 0) No such file or directory
*** Check failure stack trace: ***
    @     0x7fcc0d94adaa  (unknown)
    @     0x7fcc0d94ace4  (unknown)
    @     0x7fcc0d94a6e6  (unknown)
    @     0x7fcc0d94d687  (unknown)
    @     0x7fcc0df3ec8e  caffe::db::LMDB::Open()
    @     0x7fcc0deb6cf5  caffe::DataLayer<>::DataLayerSetUp()
    @     0x7fcc0dec62c6  caffe::BaseDataLayer<>::LayerSetUp()
    @     0x7fcc0dec63c9  caffe::BasePrefetchingDataLayer<>::LayerSetUp()
    @     0x7fcc0ded41c2  caffe::Layer<>::SetUp()
    @     0x7fcc0df6b6ae  caffe::Net<>::Init()
    @     0x7fcc0df6d63e  caffe::Net<>::Net()
    @           0x409b1d  test()
    @           0x408941  main
    @     0x7fcc0ce5cec5  (unknown)
    @           0x408fc5  (unknown)
    @              (nil)  (unknown)
I0616 10:35:23.980494 19381 caffe.cpp:149] Use GPU with device ID 0
I0616 10:35:24.980324 19381 net.cpp:360] The NetState phase (1) differed from the phase (0) specified by a rule in layer cifar
I0616 10:35:24.980526 19381 net.cpp:55] Initializing net from parameters: 
name: "CIFAR10_quick"
state {
  phase: TEST
}
layer {
  name: "cifar"
  type: "Data"
  top: "data"
  top: "label"
  include {
    phase: TEST
  }
  transform_param {
    mean_file: "examples/cifar10/mean.binaryproto"
  }
  data_param {
    source: "examples/cifar10/cifar10_test_lmdb"
    batch_size: 100
    backend: LMDB
  }
}
layer {
  name: "conv1"
  type: "Convolution"
  bottom: "data"
  top: "conv1"
  param {
    lr_mult: 1
  }
  param {
    lr_mult: 2
  }
  convolution_param {
    num_output: 32
    pad: 2
    kernel_size: 5
    stride: 1
    weight_filler {
      type: "gaussian"
      std: 0.0001
    }
    bias_filler {
      type: "constant"
    }
  }
}
layer {
  name: "pool1"
  type: "Pooling"
  bottom: "conv1"
  top: "pool1"
  pooling_param {
    pool: MAX
    kernel_size: 3
    stride: 2
  }
}
layer {
  name: "relu1"
  type: "ReLU"
  bottom: "pool1"
  top: "pool1"
}
layer {
  name: "conv2"
  type: "Convolution"
  bottom: "pool1"
  top: "conv2"
  param {
    lr_mult: 1
  }
  param {
    lr_mult: 2
  }
  convolution_param {
    num_output: 32
    pad: 2
    kernel_size: 5
    stride: 1
    weight_filler {
      type: "gaussian"
      std: 0.01
    }
    bias_filler {
      type: "constant"
    }
  }
}
layer {
  name: "relu2"
  type: "ReLU"
  bottom: "conv2"
  top: "conv2"
}
layer {
  name: "pool2"
  type: "Pooling"
  bottom: "conv2"
  top: "pool2"
  pooling_param {
    pool: AVE
    kernel_size: 3
    stride: 2
  }
}
layer {
  name: "conv3"
  type: "Convolution"
  bottom: "pool2"
  top: "conv3"
  param {
    lr_mult: 1
  }
  param {
    lr_mult: 2
  }
  convolution_param {
    num_output: 64
    pad: 2
    kernel_size: 5
    stride: 1
    weight_filler {
      type: "gaussian"
      std: 0.01
    }
    bias_filler {
      type: "constant"
    }
  }
}
layer {
  name: "relu3"
  type: "ReLU"
  bottom: "conv3"
  top: "conv3"
}
layer {
  name: "pool3"
  type: "Pooling"
  bottom: "conv3"
  top: "pool3"
  pooling_param {
    pool: AVE
    kernel_size: 3
    stride: 2
  }
}
layer {
  name: "ip1"
  type: "InnerProduct"
  bottom: "pool3"
  top: "ip1"
  param {
    lr_mult: 1
  }
  param {
    lr_mult: 2
  }
  inner_product_param {
    num_output: 64
    weight_filler {
      type: "gaussian"
      std: 0.1
    }
    bias_filler {
      type: "constant"
    }
  }
}
layer {
  name: "ip2"
  type: "InnerProduct"
  bottom: "ip1"
  top: "ip2"
  param {
    lr_mult: 1
  }
  param {
    lr_mult: 2
  }
  inner_product_param {
    num_output: 10
    weight_filler {
      type: "gaussian"
      std: 0.1
    }
    bias_filler {
      type: "constant"
    }
  }
}
layer {
  name: "accuracy"
  type: "Accuracy"
  bottom: "ip2"
  bottom: "label"
  top: "accuracy"
  include {
    phase: TEST
  }
}
layer {
  name: "loss"
  type: "SoftmaxWithLoss"
  bottom: "ip2"
  bottom: "label"
  top: "loss"
}
I0616 10:35:24.980654 19381 net.cpp:350] Computing with 2 thread(s) on 1 GPU(s).
I0616 10:35:24.980684 19381 layer_factory.hpp:74] Creating layer cifar
I0616 10:35:24.980700 19381 net.cpp:105] Creating Layer cifar
I0616 10:35:24.980705 19381 net.cpp:446] cifar -> data
I0616 10:35:24.980727 19381 net.cpp:446] cifar -> label
I0616 10:35:24.980737 19381 net.cpp:136] Setting up cifar
F0616 10:35:24.980782 19381 db.hpp:109] Check failed: mdb_status == 0 (2 vs. 0) No such file or directory
*** Check failure stack trace: ***
    @     0x7f9ea8d4ddaa  (unknown)
    @     0x7f9ea8d4dce4  (unknown)
    @     0x7f9ea8d4d6e6  (unknown)
    @     0x7f9ea8d50687  (unknown)
    @     0x7f9ea9341c8e  caffe::db::LMDB::Open()
    @     0x7f9ea92b9cf5  caffe::DataLayer<>::DataLayerSetUp()
    @     0x7f9ea92c92c6  caffe::BaseDataLayer<>::LayerSetUp()
    @     0x7f9ea92c93c9  caffe::BasePrefetchingDataLayer<>::LayerSetUp()
    @     0x7f9ea92d71c2  caffe::Layer<>::SetUp()
    @     0x7f9ea936e6ae  caffe::Net<>::Init()
    @     0x7f9ea937063e  caffe::Net<>::Net()
    @           0x409b1d  test()
    @           0x408941  main
    @     0x7f9ea825fec5  (unknown)
    @           0x408fc5  (unknown)
    @              (nil)  (unknown)
